TrainData/train_weights.npy (npy, 216128 bytes, 1 tensors)

array f8 [1, 5, 100, 54]
000000 91 2c cf ef fa 47 41 3f 83 12 1e cf 16 10 21 3f
       0.0005273795392154603 0.0001301791995126541
000010 11 e8 a6 e5 41 49 54 3f 6c ed d2 85 af a1 39 bf
       0.001238169052710795 -0.0003911069414461374
000020 25 f4 6a 09 a7 4a 54 3f 5c 2b 85 bc 75 3e 53 3f
       0.001238501664985189 0.0011745595712279932
000030 3a 72 30 42 d8 1d 5f 3f 05 53 f3 83 ac cb 5f 3f
       0.0018992053890151254 0.001940649482823521
000040 cf 1f 5a 17 a9 fb 59 3f cf 57 fd a6 36 30 50 3f
       0.0015858794480738574 0.0009880574907206068
000050 c9 40 08 d9 8d a3 51 3f 7e 40 56 49 38 dc 5e 3f
       0.0010765919906852597 0.0018835591957646887
000060 11 56 a6 f9 cf 49 5e 3f b8 5e 8e 75 aa 4c 59 3f
       0.001848652935767862 0.0015441574707661231
000070 31 80 41 d9 0c b0 f4 be 82 b7 dd cb f6 5e 53 3f
       -1.9729324393203018e-05 0.0011823091621993857
000080 13 71 8b 42 a1 c3 5e 3f b6 78 5d 91 b9 f7 5e 3f
       0.0018776964954475047 0.0018901169000496271
000090 ac c6 52 03 d5 df 59 3f b5 ed 61 03 fc 22 54 3f
       0.0015792446331882965 0.001229044062283841
0000a0 6d fa d2 27 4b bd 52 3f b6 fd da d0 c7 d3 5e 3f
       0.0011437639180226459 0.0018815471006944202
0000b0 80 90 1d 5a 79 80 5f 3f 92 8e 7b 5c c5 42 59 3f
       0.0019227204397447573 0.001541798339467802
0000c0 9d 87 3b bc 7c 4e 52 bf 25 0c d3 98 22 3a 51 3f
       -0.0011173456304551584 0.0010514581547773707
0000d0 4c a9 82 d9 76 18 43 3f 83 f8 98 a7 6c 85 4b bf
       0.0005827503510052261 -0.0008398800411624361
0000e0 63 2d 53 7a 26 f4 5a 3f 14 95 d1 73 4a 5d 5d 3f
       0.0016451240310740515 0.0017922617983228738
0000f0 43 2b 18 e0 63 4b 66 3f 3d e9 07 71 e2 af 43 3f
       0.002721495694236438 0.0006008010550993325
000100 58 6b 14 68 7a 87 5e 3f b6 c2 e0 89 78 1b 5d 3f
       0.0018633551956727858 0.0017765690931918327
000110 be 34 9d bd 40 e6 51 bf 2b 22 28 53 80 92 0b bf
       -0.0010924942239001613 -5.258993259721721e-05
000120 d0 49 27 74 f3 a2 55 3f 00 00 00 00 00 00 00 00
       0.001320588825013947 0.0
000130 86 ae 1d 64 fb 02 12 3f 64 72 da 46 2e 3c 01 3f
       6.87089859902572e-05 3.2873308424917464e-05
000140 ee 2f 54 95 25 06 ee be 4c 2f 5a 1d 4a 17 fc be
       -1.4316564071602225e-05 -2.6789641046450708e-05
000150 dd 92 64 fb cd 11 26 3f 5c ef 3d 93 04 4e fe be
       0.00016837729862930517 -2.8900868712863347e-05
000160 50 3b 9d d8 36 1f 00 bf 05 bd 3a 27 4a bf 1b bf
       -3.075014235653115e-05 -0.00010584726424655098
000170 98 3d 04 e7 3b f9 05 bf 0c 83 2c c0 85 e4 08 bf
       -4.19112592472362e-05 -4.7478992220689476e-05
000180 1c 55 cf bf ac 3a 13 bf 7a e1 f9 95 74 8c 20 3f
       -7.33535707263155e-05 0.00012625621001284196
000190 6c 00 ca 74 a3 b6 1e 3f 54 ae 55 51 98 aa f3 be
       0.00011716244370951902 -1.8755327876913912e-05
0001a0 51 5b e8 72 a6 f3 11 bf a4 19 6b 8c cc d7 50 3f
       -6.848052428441483e-05 0.0010280129951510753
0001b0 54 14 c9 2b 58 e9 93 3f 3b 3a bc 18 f5 01 6e 3f
       0.019444825813725267 0.0036630427401924937
0001c0 aa 93 0e 02 b2 3b a4 3f a5 ea 10 8a 47 92 8d bf
       0.03951793933018817 -0.014439162159864802
0001d0 0a a6 14 78 20 30 a2 3f 4c dc 92 ab 8d 4e a7 3f
       0.03552342859104492 0.04552118987469864
0001e0 f9 a7 62 36 66 99 b0 3f e5 9b 83 dc ee ba af 3f
       0.06484068706291159 0.0619730610067604
0001f0 e2 e6 c6 ef 03 dc ad 3f 74 a2 d6 db 95 48 9e 3f
       0.058319209117554185 0.029573766272422877
000200 b4 b1 82 31 c7 98 a5 3f b7 f7 fe 0f d7 fe b0 3f
       0.04218122939468874 0.06638855114485308
000210 6b 05 b0 f1 57 45 ae 3f d4 a3 b1 2e c5 6e ad 3f
       0.0591227991608417 0.05748573489183398
000220 33 39 b3 29 cd b5 73 3f 9d d9 f3 12 1b d5 a7 3f
       0.004812051217596913 0.046547742904226676
000230 5b 01 be 73 bb c7 af 3f 34 b1 f0 23 d3 5d aa 3f
       0.062070711020171664 0.05149707616542046
000240 c0 1d cc 9a b0 02 ae 3f 52 e2 43 44 bf 5e a2 3f
       0.0586142720185836 0.03587911327662553
000250 a6 76 50 40 51 b6 a6 3f 6d 58 8f ae 8d 8b b0 3f
       0.04435972127997205 0.06462941657750472
000260 ac eb d8 89 f9 b9 af 3f c9 e8 bf 5b 4d 4e ad 3f
       0.06196574981409894 0.05723802323332589
000270 fb 42 97 97 62 70 a6 bf 12 47 cd 7c cb 28 a5 3f
       -0.04382618046259342 0.04132686518154406
000280 8d 4d 88 a7 93 54 9d 3f 9c eb 9f c4 58 6f 89 bf
       0.028642947292679067 -0.012419408321866325
000290 38 1e 10 15 23 e8 ae 3f 4b 1c 82 36 32 37 b0 3f
       0.060364815064584965 0.06334222632186585
0002a0 85 66 fe f7 3c 8a ba 3f 31 88 39 38 f7 cb 8e 3f
       0.10367184690985638 0.015037471202223514
0002b0 f4 fa 3f eb 95 fc b0 3f 1e 59 ea 9a 8b d6 b2 3f
       0.06635415070921252 0.07358620197405627
0002c0 9f 37 a2 8b 2f 23 a8 bf 14 1b 35 e8 35 1b 58 bf
       -0.04714344577324358 -0.0014713312564979585
0002d0 9d d2 7d aa fe 3b a9 3f 00 00 00 00 00 00 00 00
       0.04928584891505248 0.0
0002e0 8b d9 75 13 f2 d6 68 3f 80 e0 73 cd b3 b0 dc 3e
       0.0030321815535742694 6.840287105840223e-06
0002f0 80 85 95 53 e3 be 48 bf 8a 15 6e 7e 98 a9 54 bf
       -0.0007551774971654018 -0.001261137885849225
000300 1d 35 7e 1b cf 9b 76 3f f4 c8 d2 fe d8 af 38 bf
       0.005519684804210526 -0.0003766922735152355
000310 ad c5 8c c7 38 88 3e bf a3 5f a4 8d 37 c5 67 bf
       -0.0004658831235700666 -0.002901657583731025
000320 a3 ac 86 13 50 24 69 bf 5c 78 0b 75 c8 ef d8 3e
       -0.0030690731038781212 5.945361252838741e-06
000330 bf d1 fc f4 f3 27 61 bf a1 0e 63 d4 2c 5b 74 3f
       -0.0020942463669604 0.004969763866202876
000340 7f 23 5d 0c 11 4e 62 3f ee ca b9 68 3e 4b 04 3f
       0.002234490678266032 3.870758254444726e-05
000350 61 b6 9d 78 65 9a 62 bf 26 63 d1 be 39 be a6 3f
       -0.002270887552120724 0.044420055907443065
000360 10 6d 4d cb 7d e3 a1 3f 13 b9 b7 a3 1f a9 79 3f
       0.03493874651641182 0.006264804450877531
000370 cf 0d e9 44 0b 89 b2 3f 3a de c3 e0 e3 3e 9b bf
       0.07240362579710012 -0.02660709437711104
000380 27 7f 9f 6d 28 2d b1 3f 40 bf 14 b2 c3 b3 b5 3f
       0.06709530521720507 0.08477423761064262
000390 6e b2 94 eb 3c f0 be 3f 09 2f b1 d8 b0 83 bd 3f
       0.12085324050412691 0.11529069223723466
0003a0 12 17 15 f5 42 d6 bb 3f c7 81 c5 43 60 db ab 3f
       0.10873812182861922 0.05440808131493529
0003b0 4a be 79 57 a0 13 b4 3f 8a 4e c1 0d 0e d1 bf 3f
       0.07842447410234246 0.12428367458169923
0003c0 ff 52 ee bb 30 56 bc 3f a6 ca 20 36 71 82 bb 3f
       0.11069016063840918 0.10745914050566316
0003d0 0c 06 53 2b 2a 5f 7a 3f 59 86 87 63 2c 24 b6 3f
       0.00643841240270283 0.08648946218411292
0003e0 6f fe 8d e0 7f 5f bd 3f b0 bc ba 7c af 3c b8 3f
       0.11473845703403084 0.09467598719742187
0003f0 c6 e3 4f 5c 40 dd bb 3f 50 e5 d2 0f 0c 4c b1 3f
       0.10884477857315664 0.06756663690875553
000400 cd 93 84 7d a9 1e b5 3f ce a2 55 ac f2 d5 be 3f
       0.08249911608125089 0.1204520865191043
000410 6c ce d2 d1 6d 8a bd 3f 7d 5f a7 ca ca 4b bb 3f
       0.11539350865023729 0.106625246501947
000420 2a 32 aa 8c cb df b4 bf 93 f9 93 61 a7 b4 b3 3f
       -0.08153984245490933 0.07697530872608231
000430 ab d1 a6 80 64 a6 ac 3f d5 34 ad ac 73 73 94 bf
       0.05595697470144797 -0.019971663870184415
000440 11 27 d9 39 ae e1 bc 3f 64 4f e6 8e 7a 65 be 3f
       0.11281861221609925 0.11873594273339233
000450 61 2d bd fd 0a 8a c9 3f 7f 68 46 fe ba 79 99 3f
       0.19952523603056263 0.02487842728587752
000460 56 cd bd 60 fd ec bf 3f cd 40 a7 42 29 85 c2 3f
       0.12470992671824396 0.1446887565093732
000470 47 ae c8 6e 67 a0 b7 bf 9a 40 e2 79 a8 23 64 bf
       -0.09229132132230077 -0.00245840936174353
000480 9b 8d 10 c4 47 3d b8 3f 00 00 00 00 00 00 00 00
       0.09468506371245271 0.0
000490 26 20 51 65 11 7b 7a 3f aa 2c e4 e0 04 bc 25 bf
       0.006465022995207936 -0.0001658206896951499
0004a0 8e a1 53 79 5b 6d 52 bf f9 15 ca fd 48 55 6b bf
       -0.001124705629360265 -0.0033365655529589114
0004b0 ee 4e d1 df cf eb 86 3f 46 fd f4 4e 0b bd 4e bf
       0.011191963212844293 -0.0009380631653711855
0004c0 6a d2 19 39 32 83 41 bf 09 17 f3 28 57 b7 76 bf
       -0.0005344386319863896 -0.005545940846052985
0004d0 64 c2 4d 87 c1 f3 77 bf f5 f7 8a 00 07 eb 44 3f
       -0.005847698183842984 0.0006383690061608759
0004e0 3f ac fc 95 62 c8 73 bf 17 01 e1 cb 26 87 84 3f
       -0.004829773999328656 0.010023406121149976
0004f0 0b 0a d5 3d 68 4e 6f 3f 19 5a c6 d5 ed 66 26 bf
       0.0038215671508237173 -0.00017091420421584748
000500 38 32 74 70 7e 4b 70 bf 88 b6 ce 5a cd 37 b6 3f
       -0.003978246596727568 0.08678897349337877
000510 89 9c 18 88 d6 af a9 3f 97 c9 12 2b d2 d0 80 3f
       0.050169662583635484 0.00821079439115095
000520 e0 0a 6a ac 07 ad ba 3f 02 1a e1 9d a7 2d a3 bf
       0.10420272788364171 -0.037457693121314875
000530 51 4b 7b 27 58 f6 b8 3f b9 8c ec 9e 44 cb be 3f
       0.09750891651064576 0.12028912429791462
000540 26 07 f4 fd 92 52 c6 3f b1 80 84 05 85 52 c5 3f
       0.1743949642187143 0.1665807988110877
000550 db 56 26 46 c5 fb c3 3f e6 e8 26 fb b5 5f b4 3f
       0.15612092900544536 0.07958543187752162
000560 ff 46 cb e3 4c 77 bc 3f 5a 10 f6 56 09 f4 c6 3f
       0.11119537888887619 0.17932240244056424
000570 e0 a6 a4 26 55 8e c4 3f bf a5 a0 fd 7a ba c3 3f
       0.16059364687799071 0.15412843116909689
000580 54 61 94 47 c4 ab 83 3f dc 31 b9 6a e0 67 bf 3f
       0.009604962763248771 0.12267878156234907
000590 e9 2e d3 33 bd 41 c5 3f 0c 05 d3 7e fe ae c1 3f
       0.16606869726671583 0.13815289681046072
0005a0 ea da e1 02 fb 02 c4 3f 07 7f b2 84 6e 27 b9 3f
       0.15634095803007791 0.0982579301803491
0005b0 55 62 c0 52 1d ef bd 3f c3 4c 1c 8d 10 3b c6 3f
       0.1169298483877211 0.17367751016772645
0005c0 77 fa 66 b7 48 54 c5 3f 01 ce 03 d3 52 91 c3 3f
       0.1666346450346798 0.1528724222513205
0005d0 04 c7 6b 3d 2d 97 bd bf fe 84 e5 e8 84 f0 bb 3f
       -0.11558802365814463 0.10913878141356645
0005e0 c1 ee 38 54 32 74 b4 3f 6a 63 62 a6 fc 99 9d bf
       0.07989801937304276 -0.028907725959104104
0005f0 d9 74 8b 3d 94 be c4 3f c2 21 fa 88 74 26 c6 3f
       0.16206601147761182 0.17304856003126018
000600 13 a0 da b8 39 f6 d2 3f 47 61 0e 18 2d 4d a1 3f
       0.2962784104552167 0.03379193228392068
000610 1d a2 5b de 09 4e c7 3f 94 5f a1 ca 87 d2 cb 3f
       0.18206904752084166 0.2173623790174558
000620 a9 94 63 9c bd 9e c1 bf 37 f2 2c e6 a5 d9 6d bf
       -0.13765688072377216 -0.003643821737027399
000630 7e 4d 91 30 15 a0 c1 3f 00 00 00 00 00 00 00 00
       0.13769783851112644 0.0
000640 92 65 fe 62 1c 2c 85 3f 21 cb 60 97 f2 2d 3b bf
       0.010338041087197412 -0.0004147259963957363
000650 68 b2 fb 58 04 59 56 bf 55 83 ce 09 6f 7e 73 bf
       -0.0013639967400493006 -0.00475924848879646
000660 08 29 f5 73 be f7 90 3f 87 3e c4 1e 41 df 60 bf
       0.016570068194860205 -0.0020595809820703223
000670 a8 98 4d df 9c d3 54 bf 69 5b 1e 1b 88 38 7e bf
       -0.0012711555438840536 -0.007378131545826652
000680 75 45 b5 4d cf 36 81 bf 25 aa 0f dc 1a 31 49 3f
       -0.008405322607958546 0.0007687932157954309
000690 e8 74 84 e0 ff ba 79 bf 6e df c7 1c b1 e7 8d 3f
       -0.006281852264035971 0.0146020733745755
0006a0 09 e0 bb 52 0a 40 75 3f fc 45 24 0a ee db 44 bf
       0.0051880267380894985 -0.0006365692427456322
0006b0 a0 e2 dc 24 50 6a 77 bf 1e c3 c7 37 06 99 c0 3f
       -0.005716622412187761 0.1296699306835984
0006c0 da 38 35 f5 4b e1 af 3f 0b 9b ce a8 95 c6 84 3f
       0.06226575248966677 0.010144395078737675
0006d0 a1 d3 3b 81 84 a8 c0 3f 44 3b af 65 86 df a7 bf
       0.13014274893035085 -0.04662723532930227
0006e0 1a 0c 46 3c 4d 15 bf 3f ad c0 35 08 31 3c c3 3f
       0.12141878816150645 0.15027439976575377
0006f0 e6 7a 59 7b ea 09 cc 3f 7a 06 3e d2 d9 c5 ca 3f
       0.21905261061598152 0.20916292920815122
000700 8b d6 18 b6 22 1a c9 3f fb 7e 67 a2 57 61 b9 3f
       0.19611009494262918 0.09914157595585131
000710 99 8e 79 91 fe cb c1 3f 0c cc bb e6 c0 ed cc 3f
       0.1390379152609185 0.2260056616429157
000720 6d 65 3a 8f c6 eb c9 3f 00 0a b5 91 f7 d7 c8 3f
       0.2025078009944922 0.19409079184158884
000730 7a 51 f3 3d 21 6f 87 3f 21 23 1e d1 ea a2 c3 3f
       0.011442432120397628 0.15340934000803322
000740 68 ae 0e bc fc a7 ca 3f 51 3c f5 3c f5 13 c6 3f
       0.2082515638588689 0.17248406864607316
000750 09 3a a3 41 de 19 c9 3f 5b 77 7f 7c 14 4c bf 3f
       0.19610193448029659 0.12225463904857518
000760 64 83 c6 fd e5 ad c2 3f 44 9e b5 d0 25 ec cb 3f
       0.1459319581163313 0.21814415636912277
000770 9e 56 97 1c f2 c8 ca 3f 20 1d a1 e5 43 91 c8 3f
       0.20925737758687019 0.19193314278002394
000780 55 cf d0 65 da 7c c2 bf 56 39 28 c5 69 77 c1 3f
       -0.14443521472423507 0.1364567005807184
000790 d2 a7 75 fb 1c 5b ba 3f 9e 1e 97 fb 54 f5 a1 bf
       0.10295277728223987 -0.03507485934420383
0007a0 63 ab f3 b4 12 15 ca 3f 94 b4 55 0d 51 67 cc 3f
       0.20376809917010083 0.22190297270882253
0007b0 a5 64 4a c7 08 d3 d8 3f 87 c2 92 d2 ef 27 a4 3f
       0.38788051092121584 0.039367193655725656
0007c0 48 a2 7d 8c cf ec cd 3f c8 1a cd 59 1d 74 d2 3f
       0.233789390181544 0.2883370758976693
0007d0 93 38 26 d0 2b 64 c7 bf f9 ae fd 85 c1 a9 73 bf
       -0.18274448073902202 -0.0048005637653252215
0007e0 2c ab 39 1c da bf c6 3f 00 00 00 00 00 00 00 00
       0.17772985819041176 0.0
0007f0 3d 4a 29 c0 93 40 8e 3f 42 58 57 79 7e f3 4b bf
       0.014771608640477324 -0.0008530013607763803
