TrainData/weights.npy (npy, 216128 bytes, 1 tensors)

array f8 [1, 5, 100, 54]
0.001985512005233167 0.00037476720178436783 0.004088654261774037 -0.0014297851544183026 0.004006942122736124 0.00473921338734102 0.0068170812811118925 0.006631764510906861
0.006096618568597069 0.0035221283811474667 0.004347251818391757 0.0071128724633449806 0.006541505290349321 0.006048418112879661 0.0003412704436744321 0.004779461234947157
0.006483613746258195 0.005680821693060496 0.006055345087786368 0.004036759871304887 0.004622095515222778 0.0067907009783725065 0.00659828768225558 0.005990006050231267
-0.004464331396428783 0.004254279899622233 0.003393181413002299 -0.001112047974997144 0.006299275843529908 0.006691730793262109 0.010799042967548484 0.0015867166655340284
0.0070159568355538755 0.007626154983576955 -0.0044913566891131 -7.936327509117718e-05 0.004875240736016492 0.0 0.00026031539689827434 5.5388387095158884e-05
-3.3145691892112195e-05 -7.672965960522731e-05 0.0004935918072944836 -8.143610930497829e-05 -0.00013440050883953365 -0.00024116855996219046 -0.0002398833412250191 -9.910662782987469e-06
-0.00012997912972566685 0.00045252702411995445 0.00019410365886098714 -8.693897370924229e-05 -0.00019833945382503602 0.004206112742252557 0.03870565738796949 -0.12472903525671838
0.2234644377370327 -0.025015834893353305 0.3842480128756247 0.18395171410596609 0.6098109702763924 0.6442141594556318 0.4669700574029767 0.39857274984408125
0.09538169024082226 0.7758517166297149 0.8966467434542933 0.47532192930019196 -0.0980566799809936 0.21053348474246406 0.5834731400583663 0.6262366286508193
0.459251363618815 0.36698140891917264 0.13673818267950738 0.5918184618474663 0.6185310948983274 0.4254744911928023 -0.14546948921280128 0.08070903068245631
0.6569663834078678 0.026583307236707748 0.48253179963202514 1.1310233439981774 3.3369819298927212 -0.36889862664651374 1.2637179062644355 3.0142613773664717
-1.8951375044832772 -0.008490315258124995 1.3896190720596515 0.0 0.3104580429458189 -0.006525502104427553 -0.008906580439063604 -0.05701568244380073
0.14041001173484552 -0.012663311603342423 0.01759612048833686 -0.0800188206680601 -0.05913364574622611 0.03675243644051427 -0.07852408721272834 0.13090635730147196
0.013822018996172882 -0.0010389290827420574 -0.047170746230863037 2.0084272155035747 -0.0971428539944367 -0.2613260788226455 0.05490971640889952 0.021512266107600115
0.25219081279823347 0.04934437270714366 0.546971860773031 0.5961375402684933 0.43210312719234895 0.31023832946357616 -0.14053750866507295 0.8048836939841467
1.0722075007100378 0.3926362330851122 -0.20085436997570033 0.10061873140359681 0.5872689835527153 0.7424828266482348 0.41637680114229136 0.20360531537449644
-0.04434410631449498 0.5066431777830465 0.5390291177978005 0.35167868278480885 -0.0023280771580559806 -0.16533499284721903 0.7903077496664026 -0.0014113523846766673
0.3924072103841832 1.3718946729602606 5.053856800175624 -0.6625101660285875 1.5798489598659793 4.6498800406370115 -3.047267344932684 -0.004672618216945437
2.14596228395707 0.0 0.5291375243225416 -0.02126755432302475 -0.014221089695402684 -0.1127814450465789 0.20541382531377467 -0.006741767692335783
0.05246972025782465 -0.11415111190926429 -0.0793462797318711 0.07611985207890824 -0.1378044517606157 0.1889206029544967 -0.0014637088534958152 0.011270184358240447
-0.06420392465976704 3.5475800118049605 -0.19214369990531985 -0.35397256533149757 -0.07975728580329017 0.021454287383263545 0.13000940227675356 0.01561480183618756
0.5002886313974659 0.5453230051715093 0.45347006334911344 0.21489753277149548 -0.28568920123595576 0.8103399877308289 1.2022115297399893 0.3386946391760564
-0.24009406679971976 0.07899283458612595 0.6194903985943796 0.8745900528385159 0.42184052988386656 0.04707200528710271 -0.12454106661267196 0.4348869250037884
0.45377978831455756 0.33356864615256177 0.04736243743164285 -0.3208588922426435 0.8224267348572246 -0.08816441842320837 0.33705792481274655 1.392490109195079
6.012546473222864 -0.7176869268988294 1.6398584532551028 5.485396903369228 -3.715012207289788 -0.0014958007349353834 2.622954142801169 0.0
0.6463664098201493 -0.034615253711963105 -0.016807247762747314 -0.15231838958118885 0.23645359163949473 0.002292974215317718 0.07985832022077517 -0.12880248913263379
-0.08617608431549027 0.10588678967347886 -0.17374463232728393 0.21465498814257208 -0.01880810348447023 0.02467151800985911 -0.07441361326863513 4.656662772430759
-0.25842211971647905 -0.4159915689476593 -0.18783595604777747 0.0034060639706067243 0.047592246866908584 0.02510670274194051 0.4672079599670165 0.5013834125508447
0.4974930909592201 0.15071948157862905 -0.3826146597540557 0.813432315616535 1.3232047595989282 0.30039057004200465 -0.2405628498322056 0.08955340394649768
0.6607145631668275 1.0078858028937214 0.44321839608532926 -0.07067099071072243 -0.16065150874357664 0.3753347557464018 0.3740309215195951 0.338087809550131
0.06292018326574818 -0.4274148178637447 0.8328324996342493 -0.17439271175183776 0.29763899533040306 1.312708314094409 6.57514557979371 -0.6502761564168755
1.5800961961555071 5.9045039482591966 -4.099251432120609 0.0015976476974591779 2.9386595358421 0.0 0.7059564688024346 -0.04617282014402546
00000000: 79f7 1aa4 eb43 603f 332c 12e0 8c8f 383f
00000010: 586c 6cc5 43bf 703f 8a48 a01e f46c 57bf
00000020: 8d61 fc55 9569 703f 494a 1ee8 6c69 733f
00000030: e739 8152 3aec 7b3f 05a1 06bb e829 7b3f
00000040: cf99 e495 c4f8 783f 8fed b246 70da 6c3f
00000050: d412 3386 6cce 713f 515e c529 6322 7d3f
00000060: 555b 9ef4 43cb 7a3f cd31 ccdf 39c6 783f
00000070: c84b 0965 915d 363f bf43 25db a093 733f
00000080: a24e 00d0 8f8e 7a3f 7b79 2df6 c544 773f
00000090: 737a e351 7dcd 783f dca0 107a d988 703f
000000a0: 25dc 3a51 9eee 723f e286 e7e9 90d0 7b3f
000000b0: 90d1 e05c ce06 7b3f 8dd8 6a01 fa88 783f
000000c0: 13e7 89d5 3049 72bf 7b2c 9790 ef6c 713f
000000d0: 4bfb 5766 04cc 6b3f 02dd c96b 4438 52bf
000000e0: 4379 c8fb 44cd 793f e836 92ce c968 7b3f
000000f0: aa60 fd02 cf1d 863f 6d66 ef0b 2cff 593f
00000100: eba7 8a92 c3bc 7c3f d3a2 fa63 9a3c 7f3f
00000110: beb5 8261 8765 72bf c6e1 1faf facd 14bf
00000120: 5651 5778 0ff8 733f 0000 0000 0000 0000
00000130: f05d c71d 5e0f 313f 8634 3d7d 1a0a 0d3f
00000140: 7b20 2b4d bd60 01bf 7897 b983 3d1d 14bf
00000150: 8764 bf55 8c2c 403f ce19 68b4 1559 15bf
00000160: 1f04 7f94 bb9d 21bf 6766 dd27 469c 2fbf
00000170: 572c f935 2671 2fbf fde9 001f bfc8 e4be
00000180: 8cce 0039 6009 21bf 4d1b e7c4 24a8 3d3f
00000190: eeb2 d2bb 0971 293f af3a 0032 60ca 16bf
000001a0: 9969 74ef 2aff 29bf e97e bdca 6d3a 713f
000001b0: af92 4d59 3ad1 a33f 660b 4af7 3dee bfbf
000001c0: 8f25 f391 7b9a cc3f f310 ff42 c09d 99bf
000001d0: 94a4 36fa 8497 d83f 076b 10d2 ba8b c73f
000001e0: 4388 c24b 9283 e33f 196d 4f03 679d e43f
000001f0: 2473 3061 d6e2 dd3f 390e 6a47 3782 d93f
00000200: 73b6 3838 ef6a b83f ef0a affa c6d3 e83f
00000210: 586f e682 54b1 ec3f e79e 5aab ac6b de3f
00000220: 6c36 ac19 3e1a b9bf 2945 d7df c2f2 ca3f
00000230: bfa4 d4dc cfab e23f 239a f365 210a e43f
00000240: beb7 d8d4 5f64 dd3f f60f 6397 9f7c d73f
00000250: e289 5c03 a380 c13f 7bb9 5945 2df0 e23f
00000260: 68b7 04b9 01cb e33f 0f24 3d5c f93a db3f
00000270: 220e 5e85 be9e c2bf 03e4 45d7 58a9 b43f
00000280: b0dc 695d de05 e53f 1b02 ce8c a738 9b3f
00000290: cdc5 ac0e cde1 de3f 74c1 17ef ab18 f23f
000002a0: 8ddb 0195 23b2 0a40 1c1c 3ffc 089c d7bf
000002b0: cf67 6c44 3038 f43f 4c14 ab11 351d 0840
000002c0: 13dc 32b4 7b52 febf e256 eed2 5e63 81bf
000002d0: 1d4e 4635 e13b f63f 0000 0000 0000 0000
000002e0: 8ee0 4e69 8bde d33f 5151 0e22 7cba 7abf
000002f0: 19c8 a3fd 9c3d 82bf f015 e9d6 2831 adbf
00000300: 4a50 378c f4f8 c13f b534 90e9 38ef 89bf
00000310: 0fb2 22a8 b704 923f 6074 d509 1d7c b4bf
00000320: 5a86 25e5 c346 aebf 3de3 1e21 37d1 a23f
00000330: 3be4 8692 271a b4bf 5162 b91d 8ac1 c03f
00000340: 0e10 6dfc b74e 8c3f 0136 ba9b 9505 51bf
00000350: e068 c798 c326 a8bf a3df b749 4211 0040
00000360: ba3a f2a4 5ade b8bf cda6 8804 91b9 d0bf
00000370: 70ef 6a58 201d ac3f b578 94bd 4f07 963f
00000380: 0b7c 54ef e423 d03f 62a2 0966 aa43 a93f
00000390: 2247 bb21 cb80 e13f bddf eb08 8f13 e33f
000003a0: 0397 f2df 93a7 db3f 3bc0 c0dd f1da d33f
000003b0: 83f5 c911 22fd c1bf cfdb d772 9bc1 e93f
000003c0: 4935 610d c327 f13f eacf 14b9 f320 d93f
000003d0: def3 2693 98b5 c9bf 2a53 be30 26c2 b93f
000003e0: e50c ca52 e8ca e23f 3e77 4958 6bc2 e73f
000003f0: fa07 eee1 eaa5 da3f 14a1 692d bd0f ca3f
00000400: a83e c84c 45b4 a6bf f83a eac0 6b36 e03f
00000410: ab10 11fe b93f e13f 10b6 504e e781 d63f
00000420: 5b8d 34e8 5412 63bf bae3 9471 b229 c5bf
00000430: 34f6 527a 334a e93f 33d9 7515 a41f 57bf
00000440: 5d23 d421 331d d93f 26bc 1ed4 47f3 f53f
00000450: a1af ad3c 2637 1440 b087 0b85 4833 e5bf
00000460: 6ae7 f3b3 0f47 f93f bc6f 4327 7a99 1240
00000470: ae3c a5b3 cd60 08c0 1008 db66 9823 73bf
00000480: 535c 2046 ee2a 0140 0000 0000 0000 0000
00000490: b2a7 41d1 b1ee e03f 0318 2269 29c7 95bf
000004a0: f7ec 3d59 f21f 8dbf ed17 12aa 3edf bcbf
000004b0: be38 ef0e 004b ca3f e2cd 177c 419d 7bbf
000004c0: a843 13a9 4fdd aa3f a7cb 73dc 0139 bdbf
000004d0: 9df5 81ac 0950 b4bf 4759 4133 977c b33f
000004e0: 030c c786 93a3 c1bf 0676 9de1 8c2e c83f
000004f0: 993a 066a 3dfb 57bf 3c84 e889 d214 873f
00000500: a444 b01c ab6f b0bf 302a 15a1 7161 0c40
00000510: 97e6 9c2d 2a98 c8bf 9ceb f18b 7ca7 d6bf
00000520: 3c92 2436 f96a b4bf 4f2f aeda 1cf8 953f
00000530: c2bf 79e9 25a4 c03f 3773 c239 a7fa 8f3f
00000540: f634 cd4d 5d02 e03f 71fa 1e3b 4973 e13f
00000550: da2a f34c a705 dd3f 1051 9f29 c381 cb3f
00000560: 243e 085c bb48 d2bf 0b3d 3e20 4eee e93f
00000570: dab7 3128 423c f33f 21de a547 2cad d53f
00000580: e728 6f02 67bb cebf 816e 2ad9 df38 b43f
00000590: 80c3 4487 ddd2 e33f 9525 4b47 a4fc eb3f
000005a0: 08a0 fe6b 6fff da3f 39ce 8766 d219 a83f
000005b0: 1942 1c60 ece1 bfbf 895a 16f8 2fd5 db3f
000005c0: a065 9961 ba0a dd3f 588f 8c4e 3059 d53f
000005d0: 25cf a7af e33f a83f 3e07 34bc f388 d4bf
000005e0: c52b 32df 5151 ea3f 1b6d cc7d f191 b6bf
000005f0: 786a fb66 5b92 d53f fbf0 6fb5 a347 f63f
00000600: 7ab0 90fb d80c 1840 c982 f992 4af7 e6bf
00000610: 07cc ac37 dc3c fa3f b833 c6e2 0bf1 1540
00000620: 3f67 f451 58b8 0dc0 076e 39cf d781 58bf
00000630: eee8 b161 cffb 0440 0000 0000 0000 0000
00000640: 9b22 ed9b 08af e43f 8770 452d 17b9 a1bf
00000650: 1a36 e84d eb35 91bf e150 ea42 2b7f c3bf
00000660: df82 8e7d 1c44 ce3f 0fd6 7d28 b7c8 623f
00000670: cd66 a949 9871 b43f 4fe9 3b97 997c c0bf
00000680: 2716 d5c7 a20f b6bf 98dc b98a 651b bb3f
00000690: dec1 d99c 433d c6bf 4f70 ff8c d079 cb3f
000006a0: 775b 7675 6e42 93bf 7ee6 fa8b 7d43 993f
000006b0: d6b0 5d43 c50c b3bf fb5c b034 6ca0 1240
000006c0: 93b2 2fee fc89 d0bf eaae 021a 9b9f dabf
000006d0: fc79 1e34 020b c8bf 0831 94ab 08e7 6b3f
000006e0: c54d accf 025e a83f 4684 bf4c 92b5 993f
000006f0: 444f 1f37 bce6 dd3f 4835 f539 550b e03f
00000700: b0f8 e942 edd6 df3f 6109 20a6 c64a c33f
00000710: 1949 a732 c27c d8bf 65a4 2235 a307 ea3f
00000720: 1839 06c1 d82b f53f 7cdc 965e 9939 d33f
00000730: 8eb8 5472 c3ca cebf 6718 32cd f8ec b63f
00000740: c15b 19de 9224 e53f f17f 18dd 4c20 f03f
00000750: 1703 0bb1 b05d dc3f 95e3 e079 7e17 b2bf
00000760: fea8 0d88 3a90 c4bf 8de8 3e11 7c05 d83f
00000770: 4fa4 e763 1ff0 d73f f56b 4c0d 3ba3 d53f
00000780: ad7c 6281 891b b03f b43c 23ae c35a dbbf
00000790: 7833 9f57 90a6 ea3f 5744 d118 8052 c6bf
000007a0: 1056 bd6d 840c d33f 8490 e36e da00 f53f
000007b0: 9d9c 7ef6 f24c 1a40 deba 25f1 0fcf e4bf
000007c0: b859 f0f2 1248 f93f 2781 7348 369e 1740
000007d0: 1f28 dc2a a265 10c0 f089 1c27 052d 5a3f
000007e0: b229 44ee 5f82 0740 0000 0000 0000 0000
000007f0: c7fe 3c05 3297 e63f c021 f7c0 f6a3 a7bf
